…
    train_qeustions: data/v2_OpenEnded_mscoco_train2014_questions.json
    train_answers: data/v2_mscoco_train2014_annotations.json
    val_images: data/val2014
    val_qeustions: data/v2_OpenEnded_mscoco_val2014_questions.json
    val_answers: data/v2_mscoco_val2014_annotations.json
train:
  num_epochs: 15
  grad_clip: 0.25
  dropout: 0.2
  num_hid: 20
  batch_size: 16
  save_model: false
  lr:
    lr_value: 0.001
    lr_decay: 15
    lr_gamma: 0.1
    lr_step_size: 30

[2020-12-20 16:54:08,216] [TRAIN] - MyModel(
  (img_encoder): ResNetClassifier(
    (feature_extractor): Sequential(
      (0): ResidualBlock(
        (main_path): Sequential(
          (0): Conv2d(3, 32, kernel_size=(3, 3), stride=(1, 1), padding=(1, 1))
          (1): Dropout2d(p=0.1, inplace=False)
          (2): BatchNorm2d(32, eps=1e-05, momentum=0.1, affine=True, track_running_stats=True)
          (3): ReLU()
          (4): Conv2d(32, 64, kernel_size=(3, 3), stride=(1, 1), padding=(1, 1))
        )
        (shortcut_path): Sequential(
          (0): Conv2d(3, 64, kernel_size=(1, 1), stride=(1, 1), bias=False)
        )
      )
      (1): AvgPool2d(kernel_size=2, stride=2, padding=0)
      (2): ResidualBlock(
        (main_path): Sequential(
          (0): Conv2d(64, 64, kernel_size=(3, 3), stride=(1, 1), padding=(1, 1))
          (1): Dropout2d(p=0.1, inplace=False)
          (2): BatchNorm2d(64, eps=1e-05, momentum=0.1, affine=True, track_running_stats=True)
          (3): ReLU()
          (4): Conv2d(64, 128, kernel_size=(3, 3), stride=(1, 1), padding=(1, 1))
        )
        (shortcut_path): Sequential(
          (0): Conv2d(64, 128, kernel_size=(1, 1), stride=(1, 1), bias=False)
        )
      )
      (3): AvgPool2d(kernel_size=2, stride=2, padding=0)
      (4): ResidualBlock(
        (main_path): Sequential(
          (0): Conv2d(128, 128, kernel_size=(3, 3), stride=(1, 1), padding=(1, 1))
          (1): Dropout2d(p=0.1, inplace=False)
          (2): BatchNorm2d(128, eps=1e-05, momentum=0.1, affine=True, track_running_stats=True)
          (3): ReLU()
          (4): Conv2d(128, 256, kernel_size=(3, 3), stride=(1, 1), padding=(1, 1))
        )
        (shortcut_path): Sequential(
          (0): Conv2d(128, 256, kernel_size=(1, 1), stride=(1, 1), bias=False)
        )
      )
      (5): AvgPool2d(kernel_size=2, stride=2, padding=0)
      (6): ResidualBlock(
        (main_path): Sequential(
          (0): Conv2d(256, 256, kernel_size=(3, 3), stride=(1, 1), padding=(1, 1))
          (1): Dropout2d(p=0.1, inplace=False)
          (2): BatchNorm2d(256, eps=1e-05, momentum=0.1, affine=True, track_running_stats=True)
          (3): ReLU()
          (4): Conv2d(256, 512, kernel_size=(3, 3), stride=(1, 1), padding=(1, 1))
        )
        (shortcut_path): Sequential(
          (0): Conv2d(256, 512, kernel_size=(1, 1), stride=(1, 1), bias=False)
        )
      )
      (7): AvgPool2d(kernel_size=2, stride=2, padding=0)
      (8): ResidualBlock(
        (main_path): Sequential(
          (0): Conv2d(512, 512, kernel_size=(3, 3), stride=(1, 1), padding=(1, 1))
          (1): Dropout2d(p=0.1, inplace=False)
          (2): BatchNorm2d(512, eps=1e-05, momentum=0.1, affine=True, track_running_stats=True)
          (3): ReLU()
          (4): Conv2d(512, 1024, kernel_size=(3, 3), stride=(1, 1), padding=(1, 1))
        )
        (shortcut_path): Sequential(
          (0): Conv2d(512, 1024, kernel_size=(1, 1), stride=(1, 1), bias=False)
        )
      )
      (9): AvgPool2d(kernel_size=2, stride=2, padding=0)
      (10): ResidualBlock(
        (main_path): Sequential(
          (0): Conv2d(1024, 1024, kernel_size=(3, 3), stride=(1, 1), padding=(1, 1))
          (1): Dropout2d(p=0.1, inplace=False)
          (2): BatchNorm2d(1024, eps=1e-05, momentum=0.1, affine=True, track_running_stats=True)
          (3): ReLU()
          (4): Conv2d(1024, 2048, kernel_size=(3, 3), stride=(1, 1), padding=(1, 1))
        )
        (shortcut_path): Sequential(
          (0): Conv2d(1024, 2048, kernel_size=(1, 1), stride=(1, 1), bias=False)
        )
      )
      (11): AvgPool2d(kernel_size=2, stride=2, padding=0)
      (12): ResidualBlock(
        (main_path): Sequential(
          (0): Conv2d(2048, 2048, kernel_size=(3, 3), stride=(1, 1), padding=(1, 1))
          (1): Dropout2d(p=0.1, inplace=False)
          (2): BatchNorm2d(2048, eps=1e-05, momentum=0.1, affine=True, track_running_stats=True)
          (3): ReLU()
        )
        (shortcut_path): Sequential()
      )
      (13): AvgPool2d(kernel_size=3, stride=3, padding=0)
    )
    (linear): Linear(in_features=50176, out_features=2048, bias=True)
  )
  (text): TextProcessor(
    (embedding): Embedding(15193, 300, padding_idx=0)
    (drop): Dropout(p=0.5, inplace=False)
    (tanh): Tanh()
    (lstm): LSTM(300, 1024)
  )
  (attention): Attention(
    (v_conv): Conv2d(2048, 512, kernel_size=(1, 1), stride=(1, 1), bias=False)
    (q_lin): Linear(in_features=1024, out_features=512, bias=True)
    (x_conv): Conv2d(512, 2, kernel_size=(1, 1), stride=(1, 1))
    (drop): Dropout(p=0.5, inplace=False)
    (relu): ReLU(inplace=True)
  )
  (classifier): Sequential(
    (0): Dropout(p=0.5, inplace=False)
    (1): Linear(in_features=5120, out_features=512, bias=True)
    (2): ReLU()
    (3): Dropout(p=0.5, inplace=False)
    (4): Linear(in_features=512, out_features=2410, bias=True)
  )
)
Params: 196474168
