…
    val_answers: ../../../datashare/v2_mscoco_val2014_annotations.json
train:
  num_epochs: 30
  grad_clip: 0.0
  dropout: 0.2
  num_hid: 20
  batch_size: 64
  save_model: true
  img_encoder_out_classes: 4096
  img_encoder_batchnorm: true
  img_encoder_dropout: 0.0
  text_embedding_tokens: 13659
  text_embedding_features: 300
  text_lstm_features: 4096
  text_dropout: 0.4
  classifier_dropout: 0.5
  classifier_mid_features: 512
  classifier_out_classes: 2410
  lr:
    lr_value: 0.001

[2021-01-04 20:05:55,253] [TRAIN] - DataParallel(
  (module): MyModel(
    (dropout): Dropout(p=0.5, inplace=False)
    (fc1): Linear(in_features=4096, out_features=512, bias=True)
    (fc2): Linear(in_features=512, out_features=2410, bias=True)
    (relu): ReLU(inplace=True)
    (img_encoder): ResNetClassifier(
      (feature_extractor): Sequential(
        (0): Conv2d(3, 64, kernel_size=(7, 7), stride=(2, 2), padding=(3, 3), bias=False)
        (1): BatchNorm2d(64, eps=1e-05, momentum=0.1, affine=True, track_running_stats=True)
        (2): ReLU(inplace=True)
        (3): MaxPool2d(kernel_size=3, stride=2, padding=1, dilation=1, ceil_mode=False)
        (4): ResidualBlock(
          (main_path): Sequential(
            (0): Conv2d(64, 64, kernel_size=(3, 3), stride=(1, 1), padding=(1, 1))
            (1): BatchNorm2d(64, eps=1e-05, momentum=0.1, affine=True, track_running_stats=True)
            (2): ReLU(inplace=True)
          )
        )
        (5): ResidualBlock(
          (main_path): Sequential(
            (0): Conv2d(64, 64, kernel_size=(3, 3), stride=(1, 1), padding=(1, 1))
            (1): BatchNorm2d(64, eps=1e-05, momentum=0.1, affine=True, track_running_stats=True)
            (2): ReLU(inplace=True)
          )
        )
        (6): ResidualBlock(
          (main_path): Sequential(
            (0): Conv2d(64, 128, kernel_size=(3, 3), stride=(1, 1), padding=(1, 1))
            (1): BatchNorm2d(128, eps=1e-05, momentum=0.1, affine=True, track_running_stats=True)
            (2): ReLU(inplace=True)
          )
        )
        (7): ResidualBlock(
          (main_path): Sequential(
            (0): Conv2d(128, 128, kernel_size=(3, 3), stride=(1, 1), padding=(1, 1))
            (1): BatchNorm2d(128, eps=1e-05, momentum=0.1, affine=True, track_running_stats=True)
            (2): ReLU(inplace=True)
          )
        )
        (8): ResidualBlock(
          (main_path): Sequential(
            (0): Conv2d(128, 256, kernel_size=(3, 3), stride=(1, 1), padding=(1, 1))
            (1): BatchNorm2d(256, eps=1e-05, momentum=0.1, affine=True, track_running_stats=True)
            (2): ReLU(inplace=True)
          )
        )
        (9): ResidualBlock(
          (main_path): Sequential(
            (0): Conv2d(256, 256, kernel_size=(3, 3), stride=(1, 1), padding=(1, 1))
            (1): BatchNorm2d(256, eps=1e-05, momentum=0.1, affine=True, track_running_stats=True)
            (2): ReLU(inplace=True)
          )
        )
        (10): ResidualBlock(
          (main_path): Sequential(
            (0): Conv2d(256, 512, kernel_size=(3, 3), stride=(1, 1), padding=(1, 1))
            (1): BatchNorm2d(512, eps=1e-05, momentum=0.1, affine=True, track_running_stats=True)
            (2): ReLU(inplace=True)
          )
        )
        (11): AdaptiveAvgPool2d(output_size=(1, 1))
      )
      (fc1): Linear(in_features=512, out_features=1000, bias=True)
      (fc2): Linear(in_features=1000, out_features=4096, bias=True)
      (relu): ReLU(inplace=True)
    )
    (text): TextProcessor(
      (embedding): Embedding(13659, 300, padding_idx=0)
      (drop): Dropout(p=0.4, inplace=False)
      (tanh): Tanh()
      (lstm): LSTM(300, 1024, num_layers=2)
      (fc): Linear(in_features=1024, out_features=4096, bias=True)
    )
  )
)
Params: 32444342
[2021-01-04 21:39:27,128] [TRAIN] - (EPOCH 0) Time: 5611.87, Gradient norm: 3.3913, Train loss: 1.33, Train Score: 30.58, Val score: 32.02
[2021-01-04 23:12:37,570] [TRAIN] - (EPOCH 1) Time: 5589.73, Gradient norm: 2.9273, Train loss: 0.87, Train Score: 33.11, Val score: 34.37
[2021-01-05 00:45:53,449] [TRAIN] - (EPOCH 2) Time: 5591.02, Gradient norm: 2.7094, Train loss: 0.79, Train Score: 34.64, Val score: 36.06
…
