…
    train_qeustions: data/v2_OpenEnded_mscoco_train2014_questions.json
    train_answers: data/v2_mscoco_train2014_annotations.json
    val_images: data/val2014
    val_qeustions: data/v2_OpenEnded_mscoco_val2014_questions.json
    val_answers: data/v2_mscoco_val2014_annotations.json
train:
  num_epochs: 50
  grad_clip: 0.25
  dropout: 0.2
  num_hid: 20
  batch_size: 64
  save_model: true
  lr:
    lr_value: 0.001
    lr_decay: 15
    lr_gamma: 0.1
    lr_step_size: 30

[2020-12-25 10:33:50,933] [TRAIN] - MyModel(
  (img_encoder): ResNetClassifier(
    (feature_extractor): Sequential(
      (0): ResidualBlock(
        (main_path): Sequential(
          (0): Conv2d(3, 32, kernel_size=(3, 3), stride=(1, 1), padding=(1, 1))
          (1): ReLU()
          (2): Conv2d(32, 256, kernel_size=(3, 3), stride=(1, 1), padding=(1, 1))
          (3): ReLU()
          (4): Conv2d(256, 512, kernel_size=(3, 3), stride=(1, 1), padding=(1, 1))
          (5): ReLU()
          (6): Conv2d(512, 1024, kernel_size=(3, 3), stride=(1, 1), padding=(1, 1))
        )
        (shortcut_path): Sequential(
          (0): Conv2d(3, 1024, kernel_size=(1, 1), stride=(1, 1), bias=False)
        )
      )
      (1): AvgPool2d(kernel_size=3, stride=3, padding=0)
      (2): AvgPool2d(kernel_size=10, stride=10, padding=0)
    )
  )
  (text): TextProcessor(
    (embedding): Embedding(15193, 100, padding_idx=0)
    (drop): Dropout(p=0.5, inplace=False)
    (tanh): Tanh()
    (lstm): LSTM(100, 512)
  )
  (attention): Attention(
    (v_conv): Conv2d(1024, 128, kernel_size=(1, 1), stride=(1, 1), bias=False)
    (q_lin): Linear(in_features=1024, out_features=128, bias=True)
    (x_conv): Conv2d(128, 2, kernel_size=(1, 1), stride=(1, 1))
    (drop): Dropout(p=0.5, inplace=False)
    (relu): ReLU(inplace=True)
  )
  (classifier): Sequential(
    (0): Dropout(p=0.5, inplace=False)
    (1): Linear(in_features=3072, out_features=128, bias=True)
    (2): ReLU()
    (3): Dropout(p=0.5, inplace=False)
    (4): Linear(in_features=128, out_features=2410, bias=True)
  )
)
Params: 9721264
